convolution_network/models/my_model.pth (torch, 220038 bytes, 10 tensors)

features.0.weight f4 [6, 3, 3, 3]
0	0x3e537d1b	0.20653193
1	0xbd67b809	-0.056571994
2	0xbd281b34	-0.041041568
3	0xbe188880	-0.1489582
4	0xbdb00966	-0.085955426
5	0xbdd873e2	-0.10568978
6	0xbdc14f60	-0.09438968
7	0xbe02fa6e	-0.12790844
8	0x3e1759c9	0.14780344
9	0x399ccbd9	0.00029906517
10	0xbdff4ab8	-0.12465423
11	0xbe251cf6	-0.16124329
12	0xbda4d7db	-0.08048984
13	0xbdb15b6d	-0.08660016
14	0xbe1a174a	-0.15047947
15	0xbe7df525	-0.24800546
16	0x3daa580b	0.08317574
17	0x3d0f4448	0.034977227
18	0x3e8ddf76	0.2770955
19	0x3ebe09e5	0.37116924
20	0x3e46f0f0	0.19427848
21	0x3ed58c4d	0.41708604
22	0x3edb211d	0.427987
23	0x3e07806f	0.13232587
24	0x3da44e64	0.08022764
25	0x3e44a4c7	0.19203483
26	0xbcab2d14	-0.020895518
27	0xbd330a8f	-0.04371124
28	0xbe89cfb6	-0.26916283
29	0xbe266fac	-0.16253537
30	0x3d4bd4dd	0.04976355
31	0xbefc1dca	-0.49241477
32	0xbeb9940f	-0.36245772
33	0x3df9b31f	0.12192368
34	0x3f373e3b	0.7157933
35	0x3ed11374	0.40835154
36	0xbe212283	-0.15735821
37	0x3da8d76b	0.08244213
38	0x3e4637eb	0.19357269
39	0x3cdc4021	0.026886048
40	0xbeabe543	-0.3357335
41	0xbee03e82	-0.4379769
42	0x3dc8582b	0.09782442
43	0x3ebb447e	0.36575693
44	0x3e98909d	0.2979783
45	0x3e23b905	0.15988548
46	0xbe09a8ea	-0.13443342
47	0x3d9139ff	0.0709114
48	0xbdd91c79	-0.10601134
49	0xbe0246f8	-0.12722385
50	0xbe529ed6	-0.20568404
51	0xbde37e7f	-0.111081116
52	0x3e451bb3	0.19248848
53	0x3dcc0a45	0.09962896
54	0x3ecec226	0.40382499
55	0x3e84af2d	0.259149
56	0x3e43ec7e	0.19133183
57	0x3ee14515	0.43998018
58	0x3eb2d791	0.3493009
59	0xbe4a1982	-0.19736293
60	0xbe83d8ea	-0.2575143
61	0x3e848825	0.2588512
62	0x3e0deefe	0.138607
63	0xbe9c2b41	-0.3050175
64	0xbe58dd0f	-0.21178077
65	0x3d84392b	0.064562164
66	0x3d927150	0.07150519
67	0xbd2fb633	-0.042898368
68	0xbe9533ba	-0.29141027
69	0xbe57bc5a	-0.21067944
70	0x3e4ee706	0.20205316
71	0x3eb2d1d0	0.349257
72	0x3d32b412	0.04362876
73	0xbeb6fca3	-0.35739622
74	0xbdc5fcec	-0.09667382
75	0x3d87ce48	0.06631142
76	0xbe897f0b	-0.2685474
77	0xbf041310	-0.5159159
78	0x3c3e7c2d	0.0116262855
79	0x3ea8ddad	0.32981625
80	0xbd8f4143	-0.069948696
81	0x3d602e7b	0.054731827
82	0xbd9f8b63	-0.07790258
83	0x3ec82f44	0.3909856
84	0xbc32e54f	-0.010918929
85	0xbe4938ab	-0.19650523
86	0xbe12464b	-0.14284627
87	0xbda5797a	-0.080798104
88	0x3d31e2b8	0.043429106
89	0xbe673833	-0.22580032
90	0xbeb0808d	-0.34473076
91	0xbefaadd4	-0.48960745
92	0x3a78a28e	0.0009484672
93	0x3e836de6	0.25669783
94	0xbf15ff76	-0.5859293
95	0xbe9f4488	-0.31106973
96	0x3e585b7e	0.21128651
97	0x3c03c20b	0.008041869
98	0xbe4d6d26	-0.20061168
99	0xbea435fd	-0.3207244
100	0xbe4a5e99	-0.19762649
101	0x3e4885f6	0.19582352
102	0xbe0ffa2f	-0.14060281
103	0xbe22f86a	-0.15915075
104	0xbcce24eb	-0.025164088
105	0x3e27f43c	0.16401762
106	0x3d064581	0.032781128
107	0xbc166e8d	-0.009181631
108	0xbd8557f3	-0.065109156
109	0x3f01a301	0.5063935
110	0xbdc64ea9	-0.09682972
111	0x3ee1a6d7	0.440726
112	0x3e3368ea	0.1752049
113	0xbe73ced2	-0.23809364
114	0x3e96b090	0.29431581
115	0xbe385638	-0.1800164
116	0xbe0e763c	-0.1391229
117	0x3da63f1f	0.08117508
118	0x3e65fcc4	0.22459704
119	0xbe9f5307	-0.31118032
120	0x3e1c59ab	0.1526858
121	0xbc999cb7	-0.018751485
122	0xbf0ceae9	-0.55045944
123	0x3b0b584a	0.0021262341
124	0xbec37dfa	-0.3818205
125	0xbe686c08	-0.2269746
126	0xbd8c70c7	-0.06857448
127	0x3e844d44	0.258402
128	0xbdd818a9	-0.105515786
129	0x3e992f65	0.29918972
130	0x3e0bd7ad	0.13656493
131	0xbe034f38	-0.12823188
132	0xbd1f6f43	-0.038924467
133	0xbe0b2b2e	-0.1359069
134	0xbd7eca55	-0.062204678
135	0x3cf01339	0.029306041
136	0xbddfdc50	-0.10930693
137	0x3d53b498	0.0516859
138	0x3de71638	0.11283535
139	0xbf04507f	-0.5168533
140	0x3e8883c6	0.26663035
141	0x3edce75c	0.43145263
142	0xbead7069	-0.33874825
143	0xbc39c17a	-0.011337632
144	0x3e404469	0.18776096
145	0xbe92d495	-0.28677812
146	0x3d5219d5	0.051294167
147	0x3e289008	0.16461194
148	0xbe9f9b72	-0.31173283
149	0x3e4d0cc1	0.20024396
150	0x3ee55047	0.4478781
151	0xbee6d64a	-0.45085365
152	0x3db077e3	0.086166166
153	0x3d4c118e	0.04982143
154	0xbe0b5ed0	-0.13610387
155	0x3e099879	0.1343707
156	0x3e955800	0.291687
157	0xbe97bb06	-0.29634875
158	0xbdf614db	-0.120156966
159	0x3ec8bf28	0.3920834
160	0xbe2638b4	-0.16232568
161	0xbe20ebb7	-0.15714918

features.0.bias f4 [6]
0	0x3f42b750	0.7606096
1	0x3d0703e4	0.032962695
2	0x3e8fcf50	0.28087854
3	0x3e9c49d8	0.30525088
4	0x3cf56e4c	0.02995982
5	0x3d04159f	0.032247182

features.3.weight f4 [12, 6, 3, 3]
0	0x3a724b57	0.0009242794
1	0x3df019f8	0.11723703
2	0x3e5ff873	0.2187212
3	0x3e94ae2c	0.29039133
4	0x3e849ffa	0.25903302
5	0x3e6b3040	0.22967625
6	0x3e17bd1a	0.1481823
7	0xbd0aa05b	-0.033844333
8	0xbe8208d7	-0.2539737
9	0x3e7617bb	0.2403249
10	0x3e137b5a	0.14402524
11	0xbc865ccb	-0.016401669
12	0xba5abcd2	-0.00083441765
13	0x3bdb77ba	0.006697622
14	0x3e4d94eb	0.20076339
15	0xbda14616	-0.07874696
16	0x3d964b06	0.07338528
17	0x3b2eb631	0.0026658888
18	0xbd9bfdb2	-0.07616748
19	0xbce9e4f5	-0.028551558
20	0x3cee3d6e	0.029082026
21	0xbe43ba95	-0.19114144
22	0x3e14a5ca	0.14516369
23	0x3e6db6f0	0.23214316
24	0x3d74124f	0.059587773
25	0x3ce3beea	0.027800996
26	0x3b99f2a8	0.0046981163
27	0xbd5eddf9	-0.05441091
28	0xbe6caa53	-0.23111849
29	0x3d576db0	0.05259484
30	0xbd9428d7	-0.07234352
31	0xbdb68b0b	-0.08913239
32	0xbd368dcb	-0.044568818
33	0xbda2c52b	-0.07947763
34	0xbd27c145	-0.0409558
35	0xbd7c3891	-0.061577383
36	0x3c31b22c	0.010845702
37	0x3def4092	0.11682238
38	0x3e7694c3	0.24080186
39	0xbdc6922b	-0.09695848
40	0x3ec55f2d	0.38549176
41	0x3ec79174	0.3897816
42	0x3f088037	0.5332064
43	0x3e456428	0.19276488
44	0xbde545b8	-0.111949384
45	0xbd976bf9	-0.07393641
46	0x3c818971	0.015812607
47	0x3c9f1feb	0.0194244
48	0x3d38d9ac	0.045129463
49	0x3ec045b5	0.37553182
50	0x3e0e6af7	0.13907991
51	0x3ebc574b	0.3678535
52	0xbd2ef05d	-0.042709697
53	0xbe91b299	-0.28456572
54	0x3bdddaf0	0.006770484
55	0x3d2b8297	0.041872587
56	0x3dd33e2a	0.10314591
57	0xbd754cbd	-0.059887636
58	0xbdefd272	-0.11710061
59	0x3cfc1480	0.030771494
60	0xbe051031	-0.12994458
61	0xbde59bfd	-0.11211393
62	0x3e0ca3ef	0.1373441
63	0xbe40c050	-0.18823361
64	0xbe0139f1	-0.12619759
65	0xbe03779b	-0.12838595
66	0xbe8287e3	-0.25494298
67	0xbe5a46b7	-0.21316038
68	0xbd8915f0	-0.06693637
69	0xbf04f718	-0.51939535
70	0xbecd66cd	-0.40117493
71	0xbe66c5e5	-0.22536428
72	0xbe218a3a	-0.15775385
73	0xbcfe34d7	-0.031031055
74	0x3d8f09a8	0.06984264
75	0xbdb66cec	-0.08907494
76	0xbd718461	-0.058964137
77	0x3d2fc5a1	0.042913083
78	0xbde55ed7	-0.1119973
79	0x3df98f21	0.12185503
80	0x3d89dde0	0.067317724
81	0x3e6130e5	0.21991308
82	0x3e387218	0.18012273
83	0x3d413411	0.047168795
84	0x3e437321	0.19086887
85	0xbe2be76b	-0.16787498
86	0xbe0b3c57	-0.13597237
87	0x3a5765ec	0.00082167867
88	0xbdce3747	-0.10069137
89	0xbe6aa1c5	-0.22913273
90	0x3dc7364c	0.09727153
91	0xbd7fd3c7	-0.062457826
92	0x3dde2fdb	0.108489715
93	0x3db408af	0.08790719
94	0xbdd2284d	-0.10261593
95	0x3e43a58d	0.19106121
96	0x3e0ff59f	0.14058541
97	0xbe93d25e	-0.28871435
98	0x3e771941	0.24130727
99	0x3e19feec	0.15038651
100	0x3d5268fc	0.051369652
101	0x3ce5d8be	0.028057452
102	0x3f0a6e63	0.54074687
103	0x3d6c1443	0.05763651
104	0x3ec80f5f	0.39074227
105	0x3f0b5063	0.54419535
106	0xbe596b43	-0.21232323
107	0x3ee54a68	0.4478333
108	0xbb747445	-0.0037300747
109	0x3dfc3f3b	0.12316748
110	0x3daba65a	0.083813384
111	0xbb342721	-0.0027489143
112	0x3d3f343c	0.046680674
113	0xbdaa5f77	-0.0831899
114	0x3e319953	0.17343645
115	0x3e14bc59	0.14524974
116	0x3e286ea1	0.16448452
117	0x3c07ad0a	0.008281002
118	0xbe655307	-0.22394954
119	0xbe8c082d	-0.27349988
120	0x3eb30808	0.34967065
121	0x3ec7d4dd	0.3902959
122	0x3f17e927	0.5934014
123	0x3cfbd0bb	0.030739179
124	0x3d49de80	0.04928446
125	0x3e03eef9	0.1288413
126	0x3d529ba7	0.051417973
127	0xbd5858f2	-0.0528192
128	0x3df36dd9	0.11886186
129	0x3e08d7fb	0.1336364
130	0x3d1b88d7	0.037972298
131	0xbcaf6152	-0.02140871
132	0xbdd21afa	-0.102590516
133	0xbe74a2fb	-0.23890297
134	0x3e10fd37	0.14159094
135	0xbe1e4c0c	-0.15458697
136	0xbda43370	-0.080176234
137	0xbe31ea17	-0.17374454
138	0x3d348d4a	0.044080056
139	0x3d99ed04	0.0751591
140	0x3e049558	0.12947595
141	0xbdeee265	-0.11664275
142	0x3e351402	0.17683414
143	0x3e4f5fc9	0.20251383
144	0xbdb82399	-0.08991165
145	0x3d335389	0.043780837
146	0x3c9dd3b3	0.019265985
147	0xbe0df032	-0.13861158
148	0xbe524e80	-0.20537758
149	0xbdd076c3	-0.10178902
150	0x396ade90	0.0002239889
151	0x3d933c03	0.07189181
152	0x3d8625a6	0.065501496
153	0x3bf602d2	0.0075076604
154	0xbd8ae6bb	-0.067822896
155	0xbf1da449	-0.61578804
156	0x3c7733b7	0.015088013
157	0xbd18f792	-0.037345476
158	0xbabd3592	-0.0014435521
159	0xbc54899f	-0.012972265
160	0xbdab98e6	-0.083787724
161	0xbda0db5f	-0.07854342
162	0x3de43025	0.11141995
163	0x3d716ece	0.058943562
164	0xbde27615	-0.110576786
165	0x3d8154cc	0.06315002
166	0xb943caff	-0.00018672271
167	0xbe83dfa7	-0.2575657
168	0x3e9998bd	0.29999343
169	0x3d9e6d36	0.07735674
170	0xbe51f7fb	-0.20504753
171	0x3e475f17	0.19469868
172	0x3e9c2885	0.30499664
173	0xbde4ed31	-0.11178053
174	0x3e32e2cb	0.17469327
175	0x3e61dada	0.22056141
176	0x3e3743e2	0.17896989
177	0x3e6155c4	0.22005373
178	0x3e6cdf73	0.23132114
179	0x3e6bdef4	0.23034269
180	0x3c979e77	0.01850818
181	0x3e7789ee	0.2417371
182	0x3df4ca56	0.11952655
183	0xbdfcc9a5	-0.12343148
184	0xbdd3988c	-0.103318304
185	0xbda8f812	-0.08250441
186	0x3e060e15	0.1309131
187	0xbdabadad	-0.083827354
188	0xbd6d684c	-0.057960793
189	0x3c44ea21	0.012018711
190	0xbc5434d7	-0.012952051
191	0x3e3eec1e	0.18644759
192	0xbdf597a0	-0.11991811
193	0x3e4a863b	0.19777767
194	0x3ea984cd	0.3310913
195	0xbe72c5b8	-0.23708236
196	0xbdd67990	-0.10472405
197	0x3e135bdb	0.14390509
198	0xbd6fc895	-0.0585409
199	0xbd9eb1bb	-0.07748743
200	0xbb9171cc	-0.0044386145
201	0xbee54b35	-0.4478394
202	0xbf0afa22	-0.5428792
203	0xbefa74fa	-0.4891737
204	0xbe5f3e49	-0.21801104
205	0xbe4f31e6	-0.20233878
206	0xbe1ad4de	-0.15120265
207	0x3d3bc68a	0.04584364
208	0xbed8f175	-0.42371717
209	0xbf2be93c	-0.6715276
210	0xbe003ea5	-0.12523897
211	0xbf3bba6c	-0.7333133
212	0xbefa9c28	-0.48947263
213	0x3e4f5636	0.2024773
214	0xbe415f80	-0.18884087
215	0xbdd16812	-0.10224928
216	0x3d2adb5b	0.0417131
217	0x3dfcdc16	0.123466656
218	0x3dba3f15	0.09094063
219	0x3b0ed676	0.002179531
220	0xbbe65753	-0.007029453
221	0x3e254c6f	0.16142438
222	0xbe33a82b	-0.1754462
223	0x3d83cc49	0.06435449
224	0x3e849146	0.25892085
225	0xbef02fd9	-0.46911505
226	0xbcf58f18	-0.029975459
227	0x3e29cc59	0.16581859
228	0x3cb73e34	0.022368528
229	0xbe029331	-0.12751462
230	0x3e014388	0.12623417
231	0x3ebcb3e2	0.3685599
232	0x3e0217dd	0.12704416
233	0xbedb2090	-0.4279828
234	0xbdcf10b8	-0.10110611
235	0x3e15de1f	0.14635514
236	0x3e9dfb4e	0.30855793
237	0xbeab690e	-0.33478588
238	0xbe87b31f	-0.26503846
239	0x3dc6f7fa	0.097152665
240	0xbdad9298	-0.08475226
241	0xbeaa3f6d	-0.33251515
242	0xbe5f9692	-0.21834782
243	0xbc697223	-0.014248404
244	0xbc685cfb	-0.0141823245
245	0x3bf0f03e	0.007352858
246	0x3e3635fb	0.1779403
247	0x3e44cc80	0.19218636
248	0xbe1e6496	-0.15468058
249	0x3e332481	0.17494394
250	0x3e718fc7	0.23590003
251	0xbc2e4af8	-0.010637991
252	0x3e162edc	0.14666313
253	0x3e7b9498	0.24568403
254	0xbe517341	-0.20454122
255	0x3e9b25d0	0.30302286

features.3.bias f4 [12]
0	0x3e832a06	0.25618
1	0x3e883d4e	0.26609272
2	0xbea46537	-0.3210847
3	0x3f0baf74	0.54564595
4	0xbd7fe137	-0.06247064
5	0xbee46632	-0.4460922
6	0x3eeffad4	0.46871054
7	0xbdde711f	-0.1086142
8	0x3d05aaf0	0.03263372
9	0x3b1dc55f	0.0024073941
10	0xbee812a3	-0.4532672
11	0x3ea5f4ff	0.3241348

features.6.weight f4 [24, 12, 3, 3]
0	0x3d56488f	0.05231529
1	0xbc362547	-0.011117286
2	0xbd8d4787	-0.068984084
3	0x3ed47563	0.4149581
4	0x3e108fc6	0.14117345
5	0xbe26c643	-0.16286568
6	0xbb846c18	-0.004041206
7	0x3bd0ec68	0.006375838
8	0xbdd54c63	-0.1041496
9	0x3e42433e	0.18970963
10	0xbe404cd2	-0.18779305
11	0xbe35142e	-0.17683479
12	0x3d7499e4	0.059717074
13	0x3d381b9d	0.04494821
14	0xbe10e1a7	-0.1414858
15	0xbd9d09f4	-0.07667914
16	0xbe17ab85	-0.14811523
17	0xbdaa14d1	-0.08304752
18	0x3d2be4c7	0.041966226
19	0xbe529df2	-0.20568064
20	0xbdf01908	-0.11723524
21	0x3e02c9a0	0.12772226
22	0xbe8a92ee	-0.27065223
23	0xbe5798fe	-0.21054456
24	0x3cd31ebe	0.025771495
25	0x3e355610	0.17708611
26	0xbe8714a6	-0.2638294
27	0xbde9a073	-0.114075564
28	0xbd346679	-0.044043038
29	0xbcd8b193	-0.026451861
30	0x3d30fc7c	0.043209538
31	0xbe638114	-0.22217208
32	0x3e8ad728	0.27117276
33	0xbe07c11e	-0.13257262
34	0x3c8d99a7	0.017285181
35	0x3ea87d2c	0.32908
36	0x3ea9c3d8	0.3315723
37	0xbe9d0d54	-0.3067423
38	0xbd29d720	-0.041464925
39	0x3e7d394d	0.2472889
40	0x3dbf7c17	0.0934984
41	0xbdca4a7b	-0.09877487
42	0x3e76a90e	0.24087927
43	0xbcc63762	-0.02419633
44	0xbe01e5b5	-0.12685283
45	0x3d7b0d62	0.06129206
46	0xbda09994	-0.07841793
47	0xbe21d54a	-0.1580402
48	0x3c96a64e	0.018389847
49	0xbc8f690f	-0.01750615
50	0x3c47f5c1	0.012204588
51	0x3d3e6211	0.046480242
52	0x3d07f8ba	0.03319619
53	0xbd01646c	-0.03158991
54	0xbd91efc6	-0.07125811
55	0xbdc51933	-0.09623947
56	0x3e8f947c	0.28042972
57	0xbee25fc1	-0.4421368
58	0xbdd6d100	-0.10489082
59	0x3ee40dbc	0.44541728
60	0xbd88cb7b	-0.06679436
61	0x3d92b52c	0.07163462
62	0x3e807d9c	0.25095832
63	0x3ddfb272	0.109227076
64	0xbd77a70e	-0.06046205
65	0x3d31fb6b	0.04345266
66	0x3dad9b6d	0.08476911
67	0xbe1345f7	-0.14382158
68	0x3d4ff639	0.050771926
69	0xbd471872	-0.048607297
70	0xbc356b23	-0.011072907
71	0xbda5b63b	-0.08091398
72	0x3e4f7af6	0.2026175
73	0xbceaed38	-0.028677568
74	0xbe90bcfc	-0.28269184
75	0x3f1d99ce	0.6156281
76	0xbecb86d7	-0.39751312
77	0xbdc0b28f	-0.09409057
78	0xbe81f4ae	-0.25381988
79	0xbea225a8	-0.31669354
80	0xbe7a4928	-0.2444197
81	0xbcddfa80	-0.027096987
82	0x3b0e33c9	0.0021698347
83	0x3d8ca7a1	0.0686791
84	0xbdd89e49	-0.105770655
85	0xbc352b8e	-0.0110577475
86	0x3df00759	0.117201515
87	0xbc268395	-0.010163208
88	0xbe17c40f	-0.14820884
89	0x3e6f7a28	0.23386443
90	0x3d3fb026	0.046798848
91	0xbe0ad370	-0.1355722
92	0x3d06ed5d	0.03294121
93	0xbe527af2	-0.20554712
94	0xbd68b109	-0.05680946
95	0x3e621e38	0.2208184
96	0xbd475649	-0.048666272
97	0xbd84e992	-0.064898625
98	0x3d807cb9	0.06273789
99	0x3eb85031	0.3599868
100	0x3d0cd445	0.034382124
101	0xbdaae790	-0.08344948
102	0x3ea9c3dc	0.3315724
103	0xbc2475db	-0.010037865
104	0xbe72efb2	-0.23724249
105	0xbd8fd0b1	-0.070222266
106	0x3d55691e	0.0521022
107	0xbeb719dd	-0.3576192
108	0xbd9b8cf1	-0.07595242
109	0x3d359f33	0.044341277
110	0x3ae95477	0.0017801662
111	0x3c5519d7	0.013006649
112	0x3d8ac175	0.0677518
113	0x3e208768	0.15676653
114	0x3e67acee	0.22624561
115	0x3e47dd8f	0.19518112
116	0x3e41dfcf	0.18933032
117	0x3d088d7e	0.033338062
118	0x3cbddeec	0.023177586
119	0x3d1f2f0c	0.038863227
120	0xbd010948	-0.031502992
121	0xbe04a434	-0.12953264
122	0xbd4f145c	-0.050556526
123	0xbd768f6c	-0.06019537
124	0xbe3ffe85	-0.18749435
125	0xbdf22f6c	-0.11825451
126	0xbe0c1fd3	-0.13684015
127	0x3b8b89bf	0.004258364
128	0x3d6eea35	0.058328826
129	0xbc65f841	-0.014036239
130	0x3c53edfe	0.01293516
131	0xbe91a2ca	-0.2844451
132	0xbbde4bef	-0.0067839543
133	0xbc849068	-0.01618214
134	0x3e5b0d30	0.2139175
135	0x3e4c5915	0.19955857
136	0x3da0ec43	0.07857563
137	0x3ce21508	0.02759792
138	0xbeb6f0cd	-0.3573059
139	0xbdf77e2f	-0.120846145
140	0xbd531cd6	-0.051541172
141	0xbe7a8474	-0.2446459
142	0xbed064ed	-0.40702
143	0x3e5390e0	0.20660734
144	0xbe8801f5	-0.26563993
145	0xbeeb7f12	-0.45995384
146	0xbeb6aea7	-0.35680124
147	0xbe868d6b	-0.26279768
148	0xbe8e8d9a	-0.27842408
149	0xbe9fc034	-0.31201327
150	0xbd8a8241	-0.06763125
151	0xbe308d8f	-0.172415
152	0xbed10e62	-0.40831286
153	0xbd0e24b9	-0.03470299
154	0x3de1f6fc	0.11033437
155	0x3dfd4605	0.12366871
156	0x3df446ae	0.119275436
157	0x3dc48aa0	0.09596753
158	0x3e09ce60	0.13457632
159	0xbc88fa94	-0.016721047
160	0x3d3abf84	0.0455928
161	0x3d849e7a	0.064755395
162	0x3e84ad3e	0.25913423
163	0x3d20be46	0.03924396
164	0x3e016740	0.12637043
165	0x3e25c74b	0.16189305
166	0xbe498ce0	-0.19682646
167	0x3de907e8	0.11378461
168	0x3c4419fd	0.011969087
169	0xbd3c82c7	-0.046023156
170	0x3db1b3b6	0.08676855
171	0xbe4a7b89	-0.19773687
172	0x3e4d9472	0.20076159
173	0x3e6c7a87	0.23093615
174	0xbca5c8bb	-0.020237317
175	0xbd438abc	-0.04773973
176	0x3d9ce7b6	0.07661383
177	0xbd8f6ed1	-0.070035584
178	0xbdab57f1	-0.08366383
179	0xbcdc01f6	-0.026856404
180	0x3dcf1811	0.10112012
181	0xbe48eb55	-0.19621022
182	0xbd91c6d4	-0.071180016
183	0xbec32aa0	-0.38118458
184	0xbea9a71f	-0.33135316
185	0xbe7acfd1	-0.24493338
186	0xbee07e1a	-0.43846208
187	0xbf15ae55	-0.58469135
188	0xbc08f3a6	-0.008358872
189	0x3bb2a312	0.0054515684
190	0x3ced5a49	0.028973715
191	0x3b9dec0f	0.0048194
192	0xbde2764a	-0.11057718
193	0xbd21f3db	-0.0395392
194	0xbd5c6bb7	-0.053813662
195	0xbd4916b6	-0.049093924
196	0xbdd68fa4	-0.10476616
197	0xbe10b56c	-0.14131707
198	0x3ac0ace6	0.0014699965
199	0x3e1db2a9	0.15400185
200	0x3defaf3c	0.11703345
201	0x3d07a822	0.03311933
202	0xbdd9e3da	-0.10639162
203	0xbd341188	-0.04396203
204	0x3e2c005a	0.16797009
205	0xbe2744de	-0.16334864
206	0x3d524801	0.0513382
207	0xbe64914f	-0.22321056
208	0xbe8a1384	-0.26968014
209	0xbf10e120	-0.56593513
210	0x3e404444	0.18776041
211	0xbe9e18cf	-0.30878302
212	0xbd8b4cd4	-0.06801763
213	0xbbd168cc	-0.0063906666
214	0xbe2017d7	-0.15634094
215	0xbd27c6b4	-0.040960982
216	0xbd9839bf	-0.07432889
217	0x3d835b6e	0.06413923
218	0x3d4f159e	0.050557725
219	0xbde8ffaf	-0.11376893
220	0xbe0eacfa	-0.13933173
221	0xbe12549a	-0.14290085
222	0x3d0545b1	0.032537166
223	0xbdac0741	-0.08399821
224	0xbd526575	-0.05136629
225	0xbe213d9b	-0.15746157
226	0xbc9ccba7	-0.019140078
227	0xbe420b0f	-0.18949531
228	0xbe078472	-0.13234118
229	0x3db3d5ba	0.087809995
230	0x3e8b36f5	0.27190366
231	0xbda707b3	-0.081557654
232	0xbe7fa151	-0.24963881
233	0xbd8aa4bb	-0.06769701
234	0x3d95724e	0.072971925
235	0x3df4d4c0	0.11954641
236	0x3d8b562b	0.068035446
237	0x3e0f2eba	0.13982669
238	0x3e45d0d9	0.1931795
239	0xbd9e1dde	-0.077205405
240	0xbdb72065	-0.08941726
241	0x3dbe427e	0.09290026
242	0xbd97510a	-0.07388504
243	0x3d1e7810	0.03868872
244	0xbd580650	-0.052740395
245	0xbdc18d46	-0.09450774
246	0x3dab0966	0.08351402
247	0xbe7336f3	-0.2375143
248	0xbeba7ccd	-0.3642334
249	0x3ad9a1fb	0.001660406
250	0x3e2cabcf	0.16862415
251	0xbe030b3c	-0.12797254
252	0x3e338d6a	0.17534414
253	0x3d226f18	0.03965673
254	0xbceffbd1	-0.02929488
255	0xbc2ceda2	-0.010554703

features.6.bias f4 [24]
0	0xbec904fb	-0.39261612
1	0x3e5674b1	0.20942952
2	0xbedbf71a	-0.4296196
3	0x3d96c083	0.073609374
4	0xbe6d3e39	-0.23168267
5	0x3c5d1bc4	0.013495389
6	0xbd2a875f	-0.041633006
7	0x3e2bc8cb	0.16775815
8	0xbe57a388	-0.21058476
9	0xbf0064a7	-0.50153583
10	0xbe32d6aa	-0.174647
11	0x3ebacb09	0.3648303
12	0xbe9164f4	-0.28397334
13	0xbdd20f77	-0.10256856
14	0xbea29fd1	-0.31762555
15	0x3e599de4	0.21251637
16	0xbe83f6cc	-0.2577423
17	0x3cc93496	0.024561208
18	0xbcaa0ca0	-0.020757973
19	0xbdb12d42	-0.0865121
20	0xbe14e605	-0.1454087
21	0x3ee10794	0.43951094
22	0x3e4adef7	0.19811617
23	0x3e764f6a	0.24053732

classifier.1.weight f4 [128, 384]
0	0x3c906ded	0.017630542
1	0xbc9c0215	-0.019043962
2	0x3b8bf64b	0.004271304
3	0x3bb03e93	0.005378553
4	0xbdc59f70	-0.09649551
5	0xbe16340b	-0.1466829
6	0xbd5d9132	-0.054093547
7	0xbe17c069	-0.14819492
8	0x3dfa98b2	0.122361556
9	0x3e2aa819	0.16665687
10	0xbe0152ce	-0.12629244
11	0xbe8c3bc1	-0.2738934
12	0xbcb82138	-0.022476777
13	0x3d243977	0.040093865
14	0xbe0fe346	-0.14051542
15	0x3d638767	0.05554905
16	0xbe359323	-0.1773191
17	0x3dca2e0a	0.098720625
18	0x3ca4e6a2	0.020129506
19	0x3de3eca2	0.111291185
20	0x3e1ad11c	0.15118831
21	0x3e163b16	0.14670977
22	0xbe4febc9	-0.20304789
23	0xbdb70222	-0.08935954
24	0xba838526	-0.0010034188
25	0x3d8571b6	0.06515829
26	0x3e085c25	0.133164
27	0x3d8f0ba0	0.06984639
28	0x3c698f04	0.014255289
29	0x3e25241b	0.16127054
30	0xbca36495	-0.019945422
31	0xbe878a6f	-0.26472804
32	0x3c8ff9b9	0.017575132
33	0x3a4b2a06	0.00077500974
34	0xbeae3099	-0.34021452
35	0x3db36143	0.087587856
36	0xbd235b41	-0.03988195
37	0xbe3ec46b	-0.18629615
38	0xbd81d4a5	-0.06339387
39	0xbe32032b	-0.17384021
40	0x3e0705c2	0.1318579
41	0xbe2d4f20	-0.16924715
42	0xbe83b693	-0.2572523
43	0xbd06d621	-0.032919053
44	0x3e24fe7b	0.16112702
45	0xbe61774e	-0.22018167
46	0xbde27a6a	-0.11058505
47	0xbcb99ab6	-0.02265678
48	0x3ca49f43	0.020095473
49	0xbc463de1	-0.012099714
50	0x3dc62a41	0.09676028
51	0x3e029613	0.12752561
52	0x3bc8a057	0.0061226296
53	0x3e3037cb	0.17208783
54	0x3d007896	0.031365
55	0x3e466c5b	0.19377272
56	0xbddd4c0d	-0.10805521
57	0xbcd66dbc	-0.026175372
58	0x3dea6838	0.114456594
59	0x3dc2e46c	0.09516224
60	0x3e9ee76d	0.3103594
61	0x3d1d2161	0.03836191
62	0x3e8dc8a0	0.27692127
63	0x3d674e2d	0.05647104
64	0x3a925cc6	0.0011166565
65	0xbd5b299b	-0.053506475
66	0xbe0a1736	-0.13485417
67	0xbea2bdf4	-0.31785548
68	0xbe2f6c88	-0.17131245
69	0xbe5fbe4b	-0.21849935
70	0xbd816aa3	-0.063191675
71	0x3de8c031	0.113647826
72	0xbe00ab09	-0.12565245
73	0xbe76bb2c	-0.24094838
74	0x3dc41310	0.095739484
75	0x3e6a67c9	0.22891153
76	0xbd1d3516	-0.038380705
77	0xbe302c12	-0.17204311
78	0xbd798be9	-0.060924444
79	0xbd1d0873	-0.038338136
80	0xbcca081b	-0.024662068
81	0xbea6133c	-0.3243655
82	0xbdeda775	-0.116042055
83	0x3cdb17c2	0.026744727
84	0xbdf6449f	-0.12024807
85	0x3daf8981	0.08571149
86	0x3d805164	0.06265524
87	0x3bf242ca	0.007393216
88	0xbaf74dfe	-0.0018867848
89	0x3e8560bd	0.26050368
90	0x3d531707	0.051535632
91	0xbd9f92e1	-0.07791687
92	0xbe3ac410	-0.18238854
93	0xbd024fbd	-0.031814326
94	0xbe31ca43	-0.17362313
95	0xbda459a6	-0.080249116
96	0xbe731550	-0.23738599
97	0xbcb95d4e	-0.022627499
98	0x3cac0681	0.020999195
99	0x3df6a569	0.12043268
100	0x3c42b57d	0.0118840905
101	0xbde21ead	-0.11041007
102	0xbc9a5ddc	-0.018843584
103	0x3d014292	0.031557627
104	0x3cfe5320	0.031045496
105	0x3e67623d	0.22596069
106	0xbd0a1eec	-0.033720896
107	0x3e06f5fe	0.13179776
108	0x3e08eb9f	0.13371132
109	0x3e529923	0.2056623
110	0xbd927614	-0.07151428
111	0x3de10a04	0.109882385
112	0xbab7516b	-0.0013986056
113	0x3d87d0bf	0.06631612
114	0x3d0dcc0b	0.03461842
115	0xbcef8ebd	-0.029242868
116	0xbd6d62d0	-0.057955563
117	0x3e170a9c	0.14750141
118	0x3db09be5	0.086234845
119	0xbd22e844	-0.039772287
120	0xbe8ace0d	-0.2711033
121	0x3dbbcb8c	0.09169683
122	0x3e1f0916	0.1553081
123	0xbd98d780	-0.07462978
124	0xbe815ecc	-0.25267637
125	0x3df3cda3	0.119044565
126	0x3e4f167b	0.2022342
127	0xbddcdfe8	-0.10784894
128	0x3d8c6e64	0.06856993
129	0xbbd569c6	-0.0065128533
130	0x3de7d639	0.113201566
131	0xbde8277e	-0.113356575
132	0x3d76249f	0.06009352
133	0xbda20fd0	-0.07913172
134	0x3d7d9266	0.061907195
135	0xbdae3454	-0.085060745
136	0x3d987618	0.074443996
137	0x3d83b75c	0.064314574
138	0xbdb92e79	-0.09042067
139	0x3df5a40d	0.11994181
140	0xbe9f1cf5	-0.3107678
141	0x3e1fce04	0.15605932
142	0x3de90f44	0.11379865
143	0xbdae250a	-0.085031584
144	0xbce9c5e3	-0.028536743
145	0xbe00b768	-0.12569964
146	0xbdee6d2c	-0.11641917
147	0xbea81866	-0.32831115
148	0xbc017b86	-0.007902985
149	0xbe50c867	-0.20388947
150	0xbdc08d95	-0.09402005
151	0xbdac65b3	-0.08417835
152	0x3dcdfa12	0.10057463
153	0x3cf59c87	0.029981865
154	0xbe56bbef	-0.20970128
155	0xbda25b63	-0.07927587
156	0x3e4cdaee	0.2000539
157	0x3d19ae9f	0.037520047
158	0xbe18b7fc	-0.14913934
159	0xbd1a99d5	-0.037744362
160	0xbe1cb9cc	-0.15305251
161	0xbe07fb43	-0.13279442
162	0xbe127743	-0.14303307
163	0x3e054c94	0.13017493
164	0xbd73e51d	-0.05954467
165	0x3db4855e	0.088145
166	0x3c9b233c	0.0189377
167	0xbe179426	-0.14802608
168	0xbdf9adcd	-0.12191353
169	0xbe79174e	-0.24325296
170	0xbb7c1d44	-0.0038469592
171	0x3d8f01b5	0.069827475
172	0xbdf9ede9	-0.12203581
173	0xbdd5335a	-0.10410185
174	0xbd953eb2	-0.07287349
175	0x3ee3e7a7	0.44512674
176	0xbdfac476	-0.12244503
177	0xbdeb7f8c	-0.11498937
178	0x3c88e8ab	0.016712507
179	0xbcac4066	-0.021026801
180	0x3d8784b0	0.06617105
181	0x3d56698e	0.05234676
182	0xbd55ee71	-0.05222935
183	0xbd88db0b	-0.06682404
184	0x3cbe4a51	0.023228796
185	0xbd323dc3	-0.04351593
186	0xbe2e3d89	-0.17015661
187	0xbe488569	-0.19582142
188	0xbe28af82	-0.16473201
189	0xbace504d	-0.0015740484
190	0x3df82299	0.12115974
191	0xbf1076e6	-0.56431425
192	0x3ba17457	0.004927199
193	0xbd615b3c	-0.05501865
194	0x3cda13e2	0.026620809
195	0x3dfe1877	0.1240701
196	0x3de4c6da	0.111707404
197	0x3c1f3e39	0.009719425
198	0x3d6597cd	0.05605297
199	0x3e43a7fe	0.19107053
200	0x3e183515	0.14863999
201	0xbd8df8e0	-0.06932235
202	0xbea63ef7	-0.32469913
203	0x3da44247	0.08020454
204	0xbe020a3a	-0.12699214
205	0x3d305ef5	0.043059308
206	0xbe248a49	-0.16068377
207	0xbe47b626	-0.19503078
208	0x3e33bbd1	0.17552115
209	0xbc90dac7	-0.017682446
210	0xbc5f0e28	-0.013614215
211	0x3e3423d6	0.17591795
212	0x3dbf1417	0.09330004
213	0xbbf788f6	-0.007554169
214	0xbd1e2c30	-0.03861636
215	0x3de25cec	0.1105288
216	0x3e363304	0.17792898
217	0x3dd08991	0.10182489
218	0x3d281da3	0.04104389
219	0xbd86d185	-0.065829314
220	0xbe16fa37	-0.14743887
221	0x3db20a97	0.08693426
222	0x3d7a7e5d	0.061155666
223	0xbcc9b376	-0.024621706
224	0x3de689dc	0.11256763
225	0x3c3daebc	0.011577304
226	0x3debbf23	0.11511066
227	0xbe25fb03	-0.16209035
228	0xbd4edb1d	-0.05050193
229	0x3deb38c4	0.114854366
230	0xbdbc34b9	-0.091897435
231	0xbe3c794d	-0.18405648
232	0xbe7bc36c	-0.24586266
233	0xbadc6abb	-0.0016816476
234	0xbdb2900d	-0.08718882
235	0xbd267cc8	-0.040646344
236	0xbe13c3ce	-0.14430162
237	0xbdb91a11	-0.09038175
238	0xbdcec6b4	-0.10096493
239	0x3dda3a6f	0.106556766
240	0x3e7f157e	0.24910542
241	0xbd787efc	-0.060667977
242	0x3d87b302	0.0662594
243	0x3d53c7f1	0.05170435
244	0xbce071b1	-0.027397962
245	0xbe06b7af	-0.13156007
246	0xbdc04ef0	-0.09390056
247	0xbad9022a	-0.0016556431
248	0xbe723161	-0.23651649
249	0xbdb39789	-0.087691374
250	0xbd85b31f	-0.06528305
251	0x3df4b5fd	0.11948774
252	0xbca3d2c6	-0.019997966
253	0x3dcbc9f3	0.09950628
254	0xbd86c887	-0.06581216
255	0x3df9af63	0.121916555

classifier.1.bias f4 [128]
0	0x3d4317a3	0.047629964
1	0x3d706865	0.05869331
2	0xbb2e58ce	-0.0026603225
3	0x3d7b6eba	0.061384894
4	0x3ba9c098	0.0051804297
5	0xa9828c78	-5.797527e-14
6	0xbd5ef0ba	-0.054428793
7	0xaf1771b7	-1.377377e-10
8	0x3e439d30	0.19102931
9	0x3dc629d8	0.0967595
10	0x3f0aa259	0.5415397
11	0x9dc89d2c	-5.310207e-21
12	0xb614f928	-2.2198747e-06
13	0x3c524cd1	0.012835697
14	0xa03bc9c8	-1.590628e-19
15	0x00008919	4.9181e-41
16	0x3de65b37	0.112478666
17	0x3e87143b	0.26382622
18	0x3e55d841	0.20883276
19	0x3db3f0e8	0.087861836
20	0xbd95c3e7	-0.07312756
21	0x3ea842c6	0.32863444
22	0x3c806892	0.015674863
23	0x3d83562a	0.06412919
24	0x3e82663c	0.25468624
25	0xbc971a6e	-0.01844522
26	0xaa814967	-2.2965936e-13
27	0xb57de231	-9.4578996e-07
28	0x3e5d4a08	0.21610272
29	0x3d569697	0.052389707
30	0x3ec552db	0.38539776
31	0x3e42b8be	0.19015786
32	0xbcc958cd	-0.024578476
33	0x3c978dc4	0.018500216
34	0x3e901273	0.28139076
35	0x3e4b8fa4	0.19879013
36	0xb7e8c566	-2.7748476e-05
37	0x3dadceab	0.084866844
38	0x3e06337d	0.13105579
39	0xbc3ef1fa	-0.011654371
40	0xbe5a8efb	-0.21343605
41	0x3e6569ce	0.22403643
42	0x92b8cfef	-1.1663292e-27
43	0xbaa0a394	-0.0012255781
44	0x3cd85fee	0.02641293
45	0xad178950	-8.613846e-12
46	0x3e1ffe2a	0.156243
47	0x3dce4797	0.100722484
48	0x3d87cee6	0.066312596
49	0x3e05c12f	0.13061975
50	0xbdc5fbc2	-0.096671596
51	0x3ecf1d26	0.40451926
52	0xacf43a37	-6.9413602e-12
53	0x1acb959d	8.4200545e-23
54	0x3e290fa9	0.1650988
55	0x3d7f12c4	0.062273756
56	0x3e11d79e	0.14242408
57	0xb54e6596	-7.6888807e-07
58	0xbdd7876f	-0.10523879
59	0x3ea71c9e	0.3263902
60	0xbd6753a9	-0.05647627
61	0xa9d12914	-9.2885904e-14
62	0x3e36b6da	0.1784319
63	0xb206663e	-7.823074e-09
64	0xbd01f5cd	-0.031728555
65	0xb82a810b	-4.065134e-05
66	0xbdd6bd17	-0.10485285
67	0xbe3b9690	-0.18319154
68	0xbe195ed8	-0.14977586
69	0xbc687f4c	-0.014190506
70	0xbe48c7cd	-0.19607468
71	0x3e162fda	0.14666691
72	0x3e88b599	0.26701048
73	0x3c53d951	0.01293023
74	0xa1295952	-5.737764e-19
75	0x9a4c5f9b	-4.226344e-23
76	0x3d1ae699	0.03781757
77	0xbd910fc4	-0.07083085
78	0xbe5646a4	-0.20925385
79	0xbe218025	-0.1577154
80	0x3da75c3a	0.08171888
81	0xbe32ddf3	-0.1746748
82	0xbcce703a	-0.025199998
83	0x3db6f4d7	0.08933418
84	0xbd63876b	-0.055549067
85	0xbc1f887a	-0.009737128
86	0xbe84246a	-0.25809032
87	0x3eb6b78f	0.3568692
88	0x18ab1e91	4.423333e-24
89	0xbe47718c	-0.19476908
90	0x3da5d876	0.08097927
91	0xba85224f	-0.001015732
92	0x3cf913bd	0.03040492
93	0x3e385ac3	0.18003373
94	0xb624d0bd	-2.4559406e-06
95	0x3d8c403c	0.06848189
96	0x3eae9d2a	0.34104282
97	0x9e57d219	-1.14254524e-20
98	0x3ef1775c	0.47161376
99	0xbde4a80d	-0.11164866
100	0x8000a463	-5.8971e-41
101	0xb9b3e6a9	-0.00034313396
102	0xbcdc83d9	-0.026918339
103	0x3ecd1241	0.4005299
104	0x3e008432	0.12550429
105	0xa970563b	-5.3365498e-14
106	0xbdadd117	-0.08487146
107	0x91c08586	-3.037455e-28
108	0x3e986851	0.29767087
109	0xbe61059b	-0.21974795
110	0x3f035fae	0.5131787
111	0x3ea09ea2	0.31371027
112	0xbe314ab6	-0.17313656
113	0x3e6a5930	0.22885585
114	0x3e8a6c0b	0.27035555
115	0xbe30f965	-0.17282636
116	0xa93e6467	-4.227556e-14
117	0xbb3c7d78	-0.0028761309
118	0xbe4c9a71	-0.1998079
119	0xa9466a6e	-4.4057145e-14
120	0xbd99d03d	-0.075104214
121	0x3d22a4e2	0.039708026
122	0x3cf520ce	0.029922869
123	0xbbb6554c	-0.0055643674
124	0xbe078240	-0.1323328
125	0x883098e8	-5.3142814e-34
126	0x3ea648ed	0.32477513
127	0xbc944083	-0.018097168

classifier.4.weight f4 [10, 128]
0	0xbe11e7cb	-0.14248578
1	0xbee7c7f4	-0.4526974
2	0xbf3288f9	-0.69740254
3	0xbe4d5e5b	-0.20055525
4	0x3e97a703	0.29619607
5	0x3c823d14	0.015898265
6	0xbd007efb	-0.031371098
7	0x383909b5	4.4116478e-05
8	0x3bb1ac61	0.0054221605
9	0xbdf12744	-0.117750674
10	0x3e76f1bc	0.24115652
11	0xbabb54a3	-0.0014292191
12	0xbccb8080	-0.024841547
13	0x3e6f0c2f	0.23344491
14	0x37dcf9f7	2.6342443e-05
15	0x391db185	0.00015038818
16	0xbc16fb65	-0.009215211
17	0x3e197eef	0.14989828
18	0x3d0ba6cc	0.034094617
19	0x3caed665	0.021342466
20	0x3ea3eb75	0.32015577
21	0xbe8c7c16	-0.2743842
22	0x3e565f81	0.2093487
23	0x3e2a02a2	0.16602567
24	0xbf2b3813	-0.6688244
25	0x3e3d50e9	0.18487896
26	0x39c186ee	0.0003691236
27	0xbcb1fd25	-0.021727154
28	0x3df47068	0.11935502
29	0xbe8aa0cb	-0.270758
30	0xbf107d2b	-0.5644099
31	0xbf13b2be	-0.57694614
32	0xbc27deba	-0.010245973
33	0xbbf4b2db	-0.0074676103
34	0x3e194514	0.14967757
35	0x3dd74799	0.10511703
36	0xbc1c5435	-0.009541561
37	0x3ed5341e	0.41641325
38	0xbf0b88a8	-0.54505396
39	0x3bcbb1f8	0.006216284
40	0x3cc65567	0.024210645
41	0x3d171550	0.03688556
42	0xbcd9e915	-0.0266004
43	0x3ba74752	0.0051049376
44	0x3e674801	0.22586061
45	0xbbab4d68	-0.0052277334
46	0x3e8b00ec	0.2714914
47	0x3e096a4c	0.13419455
48	0xbef91fbe	-0.4865703
49	0x3ea3845b	0.31936917
50	0x3da901c9	0.082522936
51	0x3e40c079	0.18823422
52	0xbb241eb4	-0.0025042715
53	0x39f1f101	0.00046146664
54	0xbf742f0f	-0.95384306
55	0x3e6b9b0e	0.23008367
56	0x3e6bdccb	0.23033445
57	0xbc29f6c6	-0.010373777
58	0x3da414df	0.08011793
59	0xbf23d6c2	-0.6399957
60	0x3dea39f6	0.114368364
61	0xba86b5f3	-0.0010277614
62	0x3e29cef3	0.16582851
63	0xbc0533bc	-0.00813001
64	0xbc215e06	-0.009849077
65	0x3c28ac33	0.010294962
66	0x3e32912c	0.17438191
67	0x3df4eeb1	0.11959589
68	0x3e0c0eea	0.13677564
69	0xbc14bfa6	-0.009078896
70	0x3e2fe1bc	0.17175955
71	0xbd687c58	-0.05675921
72	0xbc9285b7	-0.017886026
73	0x3e7dcdca	0.24785534
74	0x342cb6ef	1.6085299e-07
75	0x3becbb75	0.007224495
76	0x3d557f2c	0.052123234
77	0x3e392484	0.18080336
78	0x3e50399a	0.20334473
79	0x3e7048c7	0.23465262
80	0x3df55dc5	0.11980776
81	0x3d2c2ef7	0.042036977
82	0x3e27c514	0.16383773
83	0xbdd5013c	-0.10400626
84	0xbe808061	-0.25097945
85	0xbbd65301	-0.0065406566
86	0xbdf5af0b	-0.119962774
87	0xbe0cf4cf	-0.13765262
88	0xb7ab2050	-2.0399835e-05
89	0x3e11f43b	0.14253323
90	0x3e1cddd0	0.1531899
91	0xbc706f0e	-0.014674915
92	0xbf2f94a5	-0.6858619
93	0xbe67bf3c	-0.22631544
94	0xba95ec4c	-0.001143822
95	0xbe2f94e6	-0.17146644
96	0xbf33c373	-0.70220107
97	0x3b007d8b	0.001960608
98	0x3ea11c1e	0.31466764
99	0x3e0adf65	0.13561781
100	0x00008971	4.9305e-41
101	0xbc8af654	-0.016963162
102	0xbcba69ec	-0.022755586
103	0xbdfc94db	-0.123330794
104	0xbe91ac71	-0.28451875
105	0xb9755878	-0.00023397978
106	0x3eb4e9e4	0.35334694
107	0xba6200d2	-0.0008621338
108	0xbe7da71a	-0.24770775
109	0xbeee6cbc	-0.46567333
110	0xbf31792c	-0.6932552
111	0x3e176f7b	0.1478862
112	0xbe449ea7	-0.19201146
113	0xbf2ac970	-0.6671362
114	0xbe4364e1	-0.19081451
115	0xbee189ab	-0.44050345
116	0xbc37a6be	-0.011209188
117	0xbee3a415	-0.44461122
118	0x3e64a8dd	0.22330041
119	0xba1e0a5d	-0.0006028766
120	0xbf2ee326	-0.6831535
121	0x3d387a48	0.04503849
122	0xbec7553c	-0.38932216
123	0x3dd41401	0.10355378
124	0xbefa9c4f	-0.4894738
125	0xb6938d9e	-4.397428e-06
126	0xbed2ecbe	-0.41196245
127	0x3e2772b1	0.16352345
128	0xbe0e91be	-0.13922784
129	0x3e3d4d43	0.18486504
130	0x3e5d2839	0.21597375
131	0x3e871882	0.26385885
132	0x3e1b21dc	0.15149635
133	0x3bf1ff74	0.0073851887
134	0x3de75e1a	0.11297245
135	0xbb35be14	-0.0027731704
136	0xbdd6bfc8	-0.10485798
137	0xbecca2ff	-0.39968106
138	0xbe982d4a	-0.29722053
139	0xb8c4cb28	-9.383849e-05
140	0x3c9b08cb	0.018925091
141	0xbe438eff	-0.19097517
142	0x3a6859fb	0.0008863506
143	0x39bc5ca1	0.00035927168
144	0xbeac1ffd	-0.33618155
145	0xbf6f4585	-0.93465453
146	0xbe0beedd	-0.13665338
147	0xbdea2a26	-0.114338204
148	0xbe9b4909	-0.3032916
149	0xbed84ec8	-0.42247605
150	0xbeab04c1	-0.33402064
151	0xbe91cc2b	-0.2847608
152	0xbe52f5e6	-0.20601615
153	0x3e3fc0fc	0.18725961
154	0x38337cef	4.279328e-05
155	0x3ce1473b	0.027499786
156	0xbf65d83b	-0.89783067
157	0xbe9832cb	-0.29726252
158	0xbf0bf04a	-0.54663527
159	0xbef20285	-0.47267547
160	0x3d090e12	0.033460684
161	0xbe4e812e	-0.20166466
162	0xbee99165	-0.4561874
163	0xbe81580e	-0.25262493
164	0x3c755ace	0.014975263
165	0xbee3bd28	-0.44480252
166	0x3e5f323a	0.21796504
167	0x3c5bc643	0.0134139685
168	0xbef002f7	-0.46877262
169	0xbea908bf	-0.33014485
170	0x3ba6cf3e	0.005090623
171	0x3d211cbf	0.039334055
172	0x3e7784bb	0.24171726
173	0x3a17b954	0.0005787809
174	0xbc649f50	-0.013953999
175	0xbf136349	-0.5757337
176	0xbef4ea83	-0.47835168
177	0xbdc769d4	-0.09736982
178	0x3e34d5fd	0.17659755
179	0x3dfa85ac	0.12232527
180	0xbb01fbc3	-0.00198339
181	0xba16f996	-0.0005759237
182	0xbe4de0b4	-0.20105249
183	0xbf1d0712	-0.61338913
184	0xbe5949eb	-0.21219604
185	0x3c0ddd16	0.008658668
186	0x3ece343f	0.40274236
187	0xbf03d6dd	-0.5149973
188	0x3dcfcbde	0.101463065
189	0x3bbfaac1	0.005849213
190	0xbcbea2d8	-0.02327101
191	0xba8e0bd4	-0.0010837265
192	0x3d07dc38	0.033169
193	0xbcdd0c80	-0.0269835
194	0x3e506fac	0.203551
195	0x3e39123b	0.1807336
196	0x3e225e60	0.15856314
197	0x3c77652b	0.015099804
198	0xbc85c4da	-0.016329218
199	0xbda310d7	-0.07962196
200	0xbf952ba5	-1.1653944
201	0xbe0de218	-0.13855779
202	0xb21a2aa6	-8.973677e-09
203	0xbb2df5ff	-0.002654433
204	0xbd96654e	-0.07343541
205	0x3e48f3ee	0.19624302
206	0x3e7035cd	0.23458023
207	0x3e7f5e04	0.24938208
208	0xbf8354b9	-1.026023
209	0x3db8790e	0.09007464
210	0x3e52cf83	0.20586972
211	0xbefa1b00	-0.48848724
212	0xbf259e32	-0.6469451
213	0xbd6f52e1	-0.05842865
214	0x3e96b445	0.2943441
215	0xbea3b70d	-0.31975594
216	0xb97d1fd1	-0.00024139813
217	0x3e2bd3c7	0.16780005
218	0x3e1eff63	0.1552711
219	0xbc966780	-0.0183599
220	0x3e9e1b1d	0.3088006
221	0x3e3e06e3	0.18557315
222	0xbc8171dc	-0.015801363
223	0x3dbf3628	0.09336501
224	0xbf4ffc8b	-0.81244725
225	0xb92d8eb0	-0.00016551721
226	0xbf01ef1f	-0.50755495
227	0x3e48355f	0.1955161
228	0x800847f5	-7.60497e-40
229	0x3c67fecf	0.014159872
230	0x3d271893	0.04079492
231	0x3e7c9e5d	0.24669786
232	0xbeda0835	-0.42584386
233	0xba812aa3	-0.0009854626
234	0xbe8ca431	-0.27469018
235	0xb9ef4e1b	-0.00045643825
236	0xbf30b2f2	-0.6902305
237	0x3ec9f05b	0.3944119
238	0xbf06f218	-0.52713156
239	0x3e2f22cc	0.17103118
240	0xbd4bcaf9	-0.049754117
241	0x3d62aa41	0.055338148
242	0x3e8fdb7b	0.28097138
243	0x3ea5941a	0.32339555
244	0x3c64a2df	0.013954847
245	0x3ebb40ba	0.3657282
246	0x3d7e210a	0.062043227
247	0x3bb0e0b1	0.005397879
248	0x3eb1b47e	0.34708017
249	0x3e02989e	0.12753531
250	0x3e1994ee	0.14998218
251	0x3dfcd358	0.12344998
252	0x3e7a59d6	0.24448332
253	0xb89c143e	-7.44243e-05
254	0x3edc2dde	0.43003744
255	0xbf4deda6	-0.8044075

classifier.4.bias f4 [10]
0	0xbe0ec20c	-0.1394121
1	0xbeb7770a	-0.35833007
2	0xbe40fca2	-0.18846372
3	0x3eb2bc34	0.34909213
4	0x3ea9eeb0	0.33189917
5	0xbc111048	-0.008853979
6	0xbe017165	-0.12640913
7	0x3e6ef233	0.23334579
8	0xbd871eb5	-0.06597654
9	0xbd923065	-0.07138137
