logistic_regression/models/my_model.pth (torch, 124446 bytes, 2 tensors)

linear.weight f4 [10, 3072]
0	0x3d870a57	0.06593769
1	0xbcc817c8	-0.024425402
2	0xbe2eac73	-0.17057972
3	0xbd1093e9	-0.035297308
4	0xbe03746e	-0.12837383
5	0x3cb417f7	0.021984084
6	0xbd0cc00c	-0.034362838
7	0xbd6f77b0	-0.058463752
8	0x3dd83e8f	0.10558807
9	0xbd20b768	-0.03923741
10	0xbcd9d500	-0.026590824
11	0x3cb13ebe	0.021636363
12	0x3d5d2d25	0.05399813
13	0x3d8bd961	0.06828571
14	0x3d09ed2b	0.033673447
15	0x3c97cf3b	0.018531432
16	0x3d97da7f	0.07414722
17	0x3d837abb	0.06419893
18	0xbdbd308c	-0.09237775
19	0xbe3f3034	-0.18670732
20	0xbd9cc55e	-0.07654832
21	0xbdb488dc	-0.08815166
22	0x3daab29a	0.08334847
23	0x3d4186e0	0.047247767
24	0xbdf9ecd3	-0.12203374
25	0xbd69d8fc	-0.057091698
26	0xbc079af2	-0.008276688
27	0x3d2395fd	0.03993796
28	0x3dc7dc39	0.09758801
29	0x3d2e0a24	0.04249014
30	0xbb890eff	-0.004182696
31	0x3d9aa4bb	0.07550951
32	0x3cb24c8f	0.021765022
33	0x3e0015c4	0.12508303
34	0xbd0d0c7f	-0.034435745
35	0x3df04a3e	0.117329106
36	0x3d9f8207	0.077884726
37	0x396ceda0	0.00022595236
38	0x3bf71e3a	0.007541445
39	0x3dde539c	0.10855791
40	0x3d95b5de	0.07310079
41	0xbda5b810	-0.08091748
42	0x3b1269fe	0.0022341008
43	0x3e1acd49	0.15117373
44	0x3d90f2c3	0.07077553
45	0x3d73f383	0.059558403
46	0x3e3ad985	0.1824704
47	0x3e1346ff	0.14382552
48	0x3da0d605	0.07853321
49	0x3cd17cf8	0.025572285
50	0x3c891fbf	0.01673877
51	0xbdc505de	-0.0962026
52	0xbd41c25a	-0.04730449
53	0xbd1b1758	-0.03786406
54	0x3da8f1f4	0.08249274
55	0x3c35249a	0.01105609
56	0xbd9c109f	-0.07620358
57	0xbcdeb8ed	-0.027187789
58	0xbdeaefe1	-0.114715345
59	0xbe388898	-0.18020856
60	0xbbc992db	-0.0061515397
61	0xbd63723c	-0.055528864
62	0x3d6852e7	0.056719687
63	0x3e157167	0.14594041
64	0xbe19092a	-0.14944902
65	0x3d417ab3	0.047236156
66	0x3c02eff0	0.007991776
67	0x3c0bbc29	0.008528748
68	0x3e6ac6ea	0.22927442
69	0xbcb8cdd5	-0.022559086
70	0xbdbeecca	-0.09322508
71	0xbde9d339	-0.11417241
72	0xbcb98fba	-0.022651542
73	0xbe0f05e6	-0.13967094
74	0xbe54722b	-0.20746677
75	0x3d16587e	0.036705486
76	0xbd04d4a2	-0.032429345
77	0xbe2bb988	-0.16769993
78	0xbe058251	-0.13037993
79	0xbd7ab2c1	-0.06120563
80	0xbb75e6d8	-0.0037521627
81	0xbd997643	-0.0749326
82	0xbc73befb	-0.014877076
83	0xbdc062a7	-0.093938164
84	0xbdca3330	-0.098730445
85	0xbe24420d	-0.16040821
86	0x3d9fc550	0.07801306
87	0x3b318b0a	0.002709093
88	0xbd8257a5	-0.06364373
89	0xbd42c8ae	-0.047554664
90	0x3d4844dd	0.0488938
91	0x3df2b997	0.11851805
92	0x3d88ff68	0.0668934
93	0xbd8d14a5	-0.06888703
94	0xbda87421	-0.08225275
95	0x3dfc5a0e	0.12321864
96	0xbe080ff2	-0.13287333
97	0x3dff1ed3	0.12457051
98	0x3dc37389	0.09543521
99	0x3d498a26	0.049204014
100	0x3de2ffd7	0.11083954
101	0x3cc6b456	0.024255913
102	0x3d805ee7	0.06268101
103	0xbcd80ffc	-0.02637481
104	0xbd8e13aa	-0.06937344
105	0xbe1da57c	-0.15395159
106	0xbd7811c8	-0.060563833
107	0x3e1ec41c	0.15504497
108	0x3ba0fc6e	0.0049129045
109	0x3c920e70	0.01782915
110	0xbc97fba6	-0.018552613
111	0xbd6263ec	-0.055271074
112	0xbd91fe66	-0.07128601
113	0x3d3da8ec	0.046303675
114	0x3d7c6455	0.06161912
115	0xbda76db8	-0.08175224
116	0xbadcc26d	-0.0016842611
117	0x3e050c53	0.12992983
118	0x3d3e0a8a	0.04639677
119	0xbd63d448	-0.05562237
120	0xbd0082af	-0.03137463
121	0xbde95eb3	-0.113950156
122	0x3b7552b6	0.0037433333
123	0xbbbc0071	-0.0057373573
124	0xbd44cc4e	-0.048046403
125	0xbd6e0a0f	-0.05811506
126	0x3c0c5bf6	0.008566847
127	0x3e07e8db	0.13272421
128	0xbd9b7457	-0.075905494
129	0xbd654876	-0.055977307
130	0x3dbc3012	0.09188856
131	0xbdec3222	-0.115329996
132	0x3da27971	0.07933319
133	0x3ce15e2d	0.027510727
134	0xbe1a1d92	-0.15050343
135	0xbdf10cbc	-0.11770007
136	0xbd735f6a	-0.059417166
137	0xbe2d6b2c	-0.16935414
138	0xbcf99aea	-0.030469377
139	0x3e027535	0.12740023
140	0x3d1a3aad	0.037653614
141	0x3d7374fa	0.05943773
142	0xbc07d715	-0.008291026
143	0xbdc6e9f2	-0.0971259
144	0xbdc6669d	-0.09687541
145	0xbcb54a0b	-0.022130033
146	0xbde8c6a0	-0.1136601
147	0x3e0f8d3a	0.14018717
148	0x3cd9d2a4	0.0265897
149	0x3d275bc8	0.040859014
150	0x3e1dd29a	0.1541237
151	0x3d8d8406	0.06909947
152	0x3d898a0d	0.06715784
153	0x3cf6fff7	0.03015135
154	0x3d8b878c	0.06812963
155	0x3db55e28	0.088558495
156	0xbdc13f1f	-0.094358675
157	0xbcd6d5dc	-0.026225023
158	0xbc4e9a69	-0.012610056
159	0xbd9d21b8	-0.07672447
160	0x3d39030b	0.045168918
161	0xbd3da373	-0.046298455
162	0xbc368cc1	-0.011141957
163	0x3cd48199	0.025940703
164	0x3d0872fc	0.033312783
165	0x3d8819dc	0.06645557
166	0x3c72dbef	0.014822944
167	0xbd7a6ca7	-0.061138775
168	0xbd9f9d8e	-0.07793723
169	0x3d6f5495	0.058430273
170	0xbd1e7b41	-0.038691763
171	0x3e227efb	0.15868752
172	0x3da1d091	0.07901109
173	0x3dbd63c2	0.09247543
174	0xbc8c35d9	-0.01711552
175	0xbd961078	-0.0732736
176	0xbdb6bc9a	-0.08922692
177	0xbdd62a9e	-0.10457347
178	0x3c186386	0.009301072
179	0xbcbca06d	-0.023025716
180	0x3da1bbd8	0.078971565
181	0x3d4b6382	0.049655445
182	0x3d8b882b	0.06813081
183	0x3a82237e	0.000992879
184	0xbdd2dae4	-0.10295656
185	0x3d922a58	0.07136983
186	0x3e1fef23	0.15618567
187	0xbd95c958	-0.07313794
188	0x3d9260b8	0.07147354
189	0x3d9328e7	0.07185536
190	0x3db4a752	0.08820976
191	0x3cff4c4b	0.031164309
192	0x3d585f25	0.052825112
193	0x3dcb348d	0.09922133
194	0xbe678e55	-0.22612889
195	0xbd2d36fd	-0.04228877
196	0xbcaa922d	-0.020821655
197	0x3cf41e98	0.029799744
198	0x3d1af6fd	0.037833203
199	0xbd3b5426	-0.045734547
200	0xbe114292	-0.14185551
201	0x3d2d5e2a	0.04232613
202	0x3dc49c88	0.096001685
203	0x3e0e867c	0.13918489
204	0xbb51702f	-0.0031957736
205	0xbe029539	-0.12752236
206	0xbd81b6a5	-0.06333665
207	0xbd896dea	-0.067104176
208	0xbcb638d6	-0.022243898
209	0xbda9f4a7	-0.08298617
210	0xbbbd8ae3	-0.005784379
211	0xbda76859	-0.081741996
212	0x3dc7fdb4	0.09765187
213	0xbc9091ce	-0.01764765
214	0xbac64b4b	-0.001512864
215	0xbd923aa4	-0.07140091
216	0xbe4d4d14	-0.20048934
217	0x3da9a910	0.08284199
218	0x3c103684	0.00880206
219	0xbd09c602	-0.0336361
220	0xbdb45805	-0.08805851
221	0xbd5136c1	-0.051077608
222	0xbd135a0f	-0.03597456
223	0xbdad28eb	-0.0845507
224	0x3daa65f4	0.08320227
225	0x3ca5f9b9	0.020260679
226	0x3dbb6ad0	0.09151232
227	0xbd9bfe2a	-0.07616837
228	0x3d66bfc0	0.05633521
229	0x3d881272	0.06644143
230	0xbd37ca88	-0.044870883
231	0x3d5256ac	0.051352188
232	0xbdd76555	-0.105173744
233	0xbdb16f2e	-0.08663784
234	0xbdd5a31a	-0.104315
235	0x3d571640	0.052511454
236	0x3e3b66d3	0.18300943
237	0xbc28fef0	-0.010314688
238	0x3dca0839	0.098648496
239	0x3d9de5a5	0.07709817
240	0xbda175aa	-0.07883771
241	0xbdece31d	-0.11566756
242	0x3da95ce8	0.082696736
243	0x3e06c7aa	0.13162103
244	0x3d8a605f	0.067566626
245	0xbcde12ba	-0.027108539
246	0x3d11e9a8	0.035623223
247	0xbd44308c	-0.04789786
248	0xbcf24aa0	-0.0295766
249	0x3db2a7c7	0.08723407
250	0x3dac42ab	0.084111534
251	0x3e31be91	0.17357852
252	0xbd72d9a6	-0.059289597
253	0xbddc96dc	-0.10770962
254	0xbdb473cb	-0.08811148
255	0x3d25a59b	0.040441137

linear.bias f4 [10]
0	0x3f08f67e	0.5350112
1	0xbe80e4a8	-0.2517445
2	0x3ecef577	0.4042165
3	0x3f24ea42	0.6441995
4	0xbe23b4e8	-0.15986979
5	0x3f00be33	0.5029022
6	0xbf037d5b	-0.5136315
7	0xbeac3a4d	-0.3363823
8	0xbc80f0e4	-0.015739866
9	0xbf3a2042	-0.7270547
